{
  "transform_params" : {
    "input" : {
      "bias_a" : 0,
      "bias_g" : 0,
      "bias_r" : 0,
      "bias_b" : 0,
      "center_mean" : 0,
      "is_network_bgr" : 1,
      "scale" : 1
    }
  },
  "properties" : {

  },
  "analyses" : {

  },
  "format_version" : 200,
  "storage" : "model.espresso.weights",
  "layers" : [
    {
      "pad_r" : 0,
      "fused_relu" : 0,
      "fused_tanh" : 0,
      "debug_info" : "model\/101\/BiasAdd",
      "pad_fill_mode" : 0,
      "pad_b" : 0,
      "pad_l" : 0,
      "top" : "model\/101\/BiasAdd",
      "blob_weights" : 3,
      "K" : 3,
      "blob_biases" : 1,
      "name" : "model\/101\/BiasAdd",
      "has_batch_norm" : 0,
      "type" : "convolution",
      "n_groups" : 1,
      "pad_t" : 0,
      "has_biases" : 1,
      "C" : 3,
      "bottom" : "input",
      "weights" : {

      },
      "Nx" : 1,
      "pad_mode" : 0,
      "pad_value" : 0,
      "Ny" : 1,
      "n_parallel" : 1
    },
    {
      "pad_r" : 1,
      "fused_relu" : 1,
      "fused_tanh" : 0,
      "debug_info" : "model\/103\/BiasAdd",
      "pad_fill_mode" : 0,
      "pad_b" : 1,
      "pad_l" : 1,
      "top" : "model\/104\/Relu",
      "blob_weights" : 7,
      "K" : 3,
      "blob_biases" : 5,
      "stride_x" : 2,
      "name" : "model\/103\/BiasAdd",
      "has_batch_norm" : 0,
      "type" : "convolution",
      "n_groups" : 1,
      "pad_t" : 1,
      "stride_y" : 2,
      "has_biases" : 1,
      "C" : 16,
      "bottom" : "model\/101\/BiasAdd",
      "weights" : {

      },
      "Nx" : 3,
      "pad_mode" : 0,
      "pad_value" : 0,
      "Ny" : 3,
      "n_parallel" : 1
    },
    {
      "pad_r" : 1,
      "fused_relu" : 1,
      "fused_tanh" : 0,
      "debug_info" : "model\/106\/BiasAdd",
      "pad_fill_mode" : 0,
      "pad_b" : 1,
      "pad_l" : 1,
      "top" : "model\/107\/Relu",
      "blob_weights" : 11,
      "K" : 16,
      "blob_biases" : 9,
      "stride_x" : 2,
      "name" : "model\/106\/BiasAdd",
      "has_batch_norm" : 0,
      "type" : "convolution",
      "n_groups" : 1,
      "pad_t" : 1,
      "stride_y" : 2,
      "has_biases" : 1,
      "C" : 32,
      "bottom" : "model\/104\/Relu",
      "weights" : {

      },
      "Nx" : 3,
      "pad_mode" : 0,
      "pad_value" : 0,
      "Ny" : 3,
      "n_parallel" : 1
    },
    {
      "pad_r" : 0,
      "fused_relu" : 0,
      "fused_tanh" : 0,
      "debug_info" : "model\/109\/BiasAdd",
      "pad_fill_mode" : 0,
      "pad_b" : 0,
      "pad_l" : 0,
      "top" : "model\/109\/BiasAdd",
      "blob_weights" : 15,
      "K" : 32,
      "blob_biases" : 13,
      "name" : "model\/109\/BiasAdd",
      "has_batch_norm" : 0,
      "type" : "convolution",
      "n_groups" : 1,
      "pad_t" : 0,
      "has_biases" : 1,
      "C" : 32,
      "bottom" : "model\/107\/Relu",
      "weights" : {

      },
      "Nx" : 1,
      "pad_mode" : 0,
      "pad_value" : 0,
      "Ny" : 1,
      "n_parallel" : 1
    },
    {
      "pad_r" : 1,
      "fused_relu" : 1,
      "fused_tanh" : 0,
      "debug_info" : "model\/110\/BiasAdd",
      "pad_fill_mode" : 0,
      "pad_b" : 1,
      "pad_l" : 1,
      "top" : "model\/111\/Relu",
      "blob_weights" : 19,
      "K" : 32,
      "blob_biases" : 17,
      "name" : "model\/110\/BiasAdd",
      "has_batch_norm" : 0,
      "type" : "convolution",
      "n_groups" : 32,
      "pad_t" : 1,
      "has_biases" : 1,
      "C" : 32,
      "bottom" : "model\/107\/Relu",
      "weights" : {

      },
      "Nx" : 3,
      "pad_mode" : 0,
      "pad_value" : 0,
      "Ny" : 3,
      "n_parallel" : 1
    },
    {
      "pad_r" : 0,
      "fused_relu" : 0,
      "fused_tanh" : 0,
      "debug_info" : "model\/112\/BiasAdd",
      "pad_fill_mode" : 0,
      "pad_b" : 0,
      "pad_l" : 0,
      "top" : "model\/112\/BiasAdd",
      "blob_weights" : 23,
      "K" : 32,
      "blob_biases" : 21,
      "name" : "model\/112\/BiasAdd",
      "has_batch_norm" : 0,
      "type" : "convolution",
      "n_groups" : 1,
      "pad_t" : 0,
      "has_biases" : 1,
      "C" : 32,
      "bottom" : "model\/111\/Relu",
      "weights" : {

      },
      "Nx" : 1,
      "pad_mode" : 0,
      "pad_value" : 0,
      "Ny" : 1,
      "n_parallel" : 1
    },
    {
      "bottom" : "model\/112\/BiasAdd",
      "weights" : {

      },
      "mode" : 0,
      "debug_info" : "model\/113\/Relu",
      "top" : "model\/113\/Relu",
      "type" : "activation",
      "name" : "model\/113\/Relu"
    },
    {
      "bottom" : "model\/112\/BiasAdd",
      "weights" : {

      },
      "mode" : 0,
      "debug_info" : "model\/143\/Relu",
      "top" : "model\/143\/Relu",
      "type" : "activation",
      "name" : "model\/143\/Relu"
    },
    {
      "pad_r" : 1,
      "fused_relu" : 1,
      "fused_tanh" : 0,
      "debug_info" : "model\/115\/BiasAdd",
      "pad_fill_mode" : 0,
      "pad_b" : 1,
      "pad_l" : 1,
      "top" : "model\/116\/Relu",
      "blob_weights" : 27,
      "K" : 32,
      "blob_biases" : 25,
      "name" : "model\/115\/BiasAdd",
      "has_batch_norm" : 0,
      "type" : "convolution",
      "n_groups" : 32,
      "pad_t" : 1,
      "has_biases" : 1,
      "C" : 32,
      "bottom" : "model\/113\/Relu",
      "weights" : {

      },
      "Nx" : 3,
      "pad_mode" : 0,
      "pad_value" : 0,
      "Ny" : 3,
      "n_parallel" : 1
    },
    {
      "pad_r" : 0,
      "fused_relu" : 0,
      "fused_tanh" : 0,
      "debug_info" : "model\/117\/BiasAdd",
      "pad_fill_mode" : 0,
      "pad_b" : 0,
      "pad_l" : 0,
      "top" : "model\/117\/BiasAdd",
      "blob_weights" : 31,
      "K" : 32,
      "blob_biases" : 29,
      "name" : "model\/117\/BiasAdd",
      "has_batch_norm" : 0,
      "type" : "convolution",
      "n_groups" : 1,
      "pad_t" : 0,
      "has_biases" : 1,
      "C" : 32,
      "bottom" : "model\/116\/Relu",
      "weights" : {

      },
      "Nx" : 1,
      "pad_mode" : 0,
      "pad_value" : 0,
      "Ny" : 1,
      "n_parallel" : 1
    },
    {
      "bottom" : "model\/109\/BiasAdd,model\/117\/BiasAdd",
      "alpha" : 1,
      "operation" : 0,
      "weights" : {

      },
      "fused_relu" : 0,
      "debug_info" : "model\/118\/add",
      "top" : "model\/118\/add",
      "type" : "elementwise",
      "name" : "model\/118\/add",
      "beta" : 0
    },
    {
      "bottom" : "model\/118\/add",
      "weights" : {

      },
      "mode" : 0,
      "debug_info" : "model\/119\/Relu",
      "top" : "model\/119\/Relu",
      "type" : "activation",
      "name" : "model\/119\/Relu"
    },
    {
      "pad_r" : 0,
      "fused_relu" : 0,
      "fused_tanh" : 0,
      "debug_info" : "model\/121\/BiasAdd",
      "pad_fill_mode" : 0,
      "pad_b" : 0,
      "pad_l" : 0,
      "top" : "model\/121\/BiasAdd",
      "blob_weights" : 35,
      "K" : 32,
      "blob_biases" : 33,
      "name" : "model\/121\/BiasAdd",
      "has_batch_norm" : 0,
      "type" : "convolution",
      "n_groups" : 1,
      "pad_t" : 0,
      "has_biases" : 1,
      "C" : 32,
      "bottom" : "model\/119\/Relu",
      "weights" : {

      },
      "Nx" : 1,
      "pad_mode" : 0,
      "pad_value" : 0,
      "Ny" : 1,
      "n_parallel" : 1
    },
    {
      "pad_r" : 1,
      "fused_relu" : 1,
      "fused_tanh" : 0,
      "debug_info" : "model\/122\/BiasAdd",
      "pad_fill_mode" : 0,
      "pad_b" : 1,
      "pad_l" : 1,
      "top" : "model\/123\/Relu",
      "blob_weights" : 39,
      "K" : 32,
      "blob_biases" : 37,
      "name" : "model\/122\/BiasAdd",
      "has_batch_norm" : 0,
      "type" : "convolution",
      "n_groups" : 32,
      "pad_t" : 1,
      "has_biases" : 1,
      "C" : 32,
      "bottom" : "model\/119\/Relu",
      "weights" : {

      },
      "Nx" : 3,
      "pad_mode" : 0,
      "pad_value" : 0,
      "Ny" : 3,
      "n_parallel" : 1
    },
    {
      "pad_r" : 0,
      "fused_relu" : 1,
      "fused_tanh" : 0,
      "debug_info" : "model\/124\/BiasAdd",
      "pad_fill_mode" : 0,
      "pad_b" : 0,
      "pad_l" : 0,
      "top" : "model\/125\/Relu",
      "blob_weights" : 43,
      "K" : 32,
      "blob_biases" : 41,
      "name" : "model\/124\/BiasAdd",
      "has_batch_norm" : 0,
      "type" : "convolution",
      "n_groups" : 1,
      "pad_t" : 0,
      "has_biases" : 1,
      "C" : 32,
      "bottom" : "model\/123\/Relu",
      "weights" : {

      },
      "Nx" : 1,
      "pad_mode" : 0,
      "pad_value" : 0,
      "Ny" : 1,
      "n_parallel" : 1
    },
    {
      "pad_r" : 1,
      "fused_relu" : 1,
      "fused_tanh" : 0,
      "debug_info" : "model\/127\/BiasAdd",
      "pad_fill_mode" : 0,
      "pad_b" : 1,
      "pad_l" : 1,
      "top" : "model\/128\/Relu",
      "blob_weights" : 47,
      "K" : 32,
      "blob_biases" : 45,
      "name" : "model\/127\/BiasAdd",
      "has_batch_norm" : 0,
      "type" : "convolution",
      "n_groups" : 32,
      "pad_t" : 1,
      "has_biases" : 1,
      "C" : 32,
      "bottom" : "model\/125\/Relu",
      "weights" : {

      },
      "Nx" : 3,
      "pad_mode" : 0,
      "pad_value" : 0,
      "Ny" : 3,
      "n_parallel" : 1
    },
    {
      "pad_r" : 0,
      "fused_relu" : 0,
      "fused_tanh" : 0,
      "debug_info" : "model\/129\/BiasAdd",
      "pad_fill_mode" : 0,
      "pad_b" : 0,
      "pad_l" : 0,
      "top" : "model\/129\/BiasAdd",
      "blob_weights" : 51,
      "K" : 32,
      "blob_biases" : 49,
      "name" : "model\/129\/BiasAdd",
      "has_batch_norm" : 0,
      "type" : "convolution",
      "n_groups" : 1,
      "pad_t" : 0,
      "has_biases" : 1,
      "C" : 32,
      "bottom" : "model\/128\/Relu",
      "weights" : {

      },
      "Nx" : 1,
      "pad_mode" : 0,
      "pad_value" : 0,
      "Ny" : 1,
      "n_parallel" : 1
    },
    {
      "bottom" : "model\/121\/BiasAdd,model\/129\/BiasAdd",
      "alpha" : 1,
      "operation" : 0,
      "weights" : {

      },
      "fused_relu" : 0,
      "debug_info" : "model\/130\/add",
      "top" : "model\/130\/add",
      "type" : "elementwise",
      "name" : "model\/130\/add",
      "beta" : 0
    },
    {
      "bottom" : "model\/130\/add",
      "weights" : {

      },
      "mode" : 0,
      "debug_info" : "model\/131\/Relu",
      "top" : "model\/131\/Relu",
      "type" : "activation",
      "name" : "model\/131\/Relu"
    },
    {
      "pad_r" : 0,
      "fused_relu" : 0,
      "fused_tanh" : 0,
      "debug_info" : "model\/133\/BiasAdd",
      "pad_fill_mode" : 0,
      "pad_b" : 0,
      "pad_l" : 0,
      "top" : "model\/133\/BiasAdd",
      "blob_weights" : 55,
      "K" : 32,
      "blob_biases" : 53,
      "name" : "model\/133\/BiasAdd",
      "has_batch_norm" : 0,
      "type" : "convolution",
      "n_groups" : 1,
      "pad_t" : 0,
      "has_biases" : 1,
      "C" : 32,
      "bottom" : "model\/131\/Relu",
      "weights" : {

      },
      "Nx" : 1,
      "pad_mode" : 0,
      "pad_value" : 0,
      "Ny" : 1,
      "n_parallel" : 1
    },
    {
      "pad_r" : 1,
      "fused_relu" : 1,
      "fused_tanh" : 0,
      "debug_info" : "model\/134\/BiasAdd",
      "pad_fill_mode" : 0,
      "pad_b" : 1,
      "pad_l" : 1,
      "top" : "model\/135\/Relu",
      "blob_weights" : 59,
      "K" : 32,
      "blob_biases" : 57,
      "name" : "model\/134\/BiasAdd",
      "has_batch_norm" : 0,
      "type" : "convolution",
      "n_groups" : 32,
      "pad_t" : 1,
      "has_biases" : 1,
      "C" : 32,
      "bottom" : "model\/131\/Relu",
      "weights" : {

      },
      "Nx" : 3,
      "pad_mode" : 0,
      "pad_value" : 0,
      "Ny" : 3,
      "n_parallel" : 1
    },
    {
      "pad_r" : 0,
      "fused_relu" : 1,
      "fused_tanh" : 0,
      "debug_info" : "model\/136\/BiasAdd",
      "pad_fill_mode" : 0,
      "pad_b" : 0,
      "pad_l" : 0,
      "top" : "model\/137\/Relu",
      "blob_weights" : 63,
      "K" : 32,
      "blob_biases" : 61,
      "name" : "model\/136\/BiasAdd",
      "has_batch_norm" : 0,
      "type" : "convolution",
      "n_groups" : 1,
      "pad_t" : 0,
      "has_biases" : 1,
      "C" : 32,
      "bottom" : "model\/135\/Relu",
      "weights" : {

      },
      "Nx" : 1,
      "pad_mode" : 0,
      "pad_value" : 0,
      "Ny" : 1,
      "n_parallel" : 1
    },
    {
      "pad_r" : 1,
      "fused_relu" : 1,
      "fused_tanh" : 0,
      "debug_info" : "model\/139\/BiasAdd",
      "pad_fill_mode" : 0,
      "pad_b" : 1,
      "pad_l" : 1,
      "top" : "model\/140\/Relu",
      "blob_weights" : 67,
      "K" : 32,
      "blob_biases" : 65,
      "name" : "model\/139\/BiasAdd",
      "has_batch_norm" : 0,
      "type" : "convolution",
      "n_groups" : 32,
      "pad_t" : 1,
      "has_biases" : 1,
      "C" : 32,
      "bottom" : "model\/137\/Relu",
      "weights" : {

      },
      "Nx" : 3,
      "pad_mode" : 0,
      "pad_value" : 0,
      "Ny" : 3,
      "n_parallel" : 1
    },
    {
      "pad_r" : 0,
      "fused_relu" : 0,
      "fused_tanh" : 0,
      "debug_info" : "model\/141\/BiasAdd",
      "pad_fill_mode" : 0,
      "pad_b" : 0,
      "pad_l" : 0,
      "top" : "model\/141\/BiasAdd",
      "blob_weights" : 71,
      "K" : 32,
      "blob_biases" : 69,
      "name" : "model\/141\/BiasAdd",
      "has_batch_norm" : 0,
      "type" : "convolution",
      "n_groups" : 1,
      "pad_t" : 0,
      "has_biases" : 1,
      "C" : 32,
      "bottom" : "model\/140\/Relu",
      "weights" : {

      },
      "Nx" : 1,
      "pad_mode" : 0,
      "pad_value" : 0,
      "Ny" : 1,
      "n_parallel" : 1
    },
    {
      "bottom" : "model\/133\/BiasAdd,model\/141\/BiasAdd",
      "alpha" : 1,
      "operation" : 0,
      "weights" : {

      },
      "fused_relu" : 0,
      "debug_info" : "model\/142\/add",
      "top" : "model\/142\/add",
      "type" : "elementwise",
      "name" : "model\/142\/add",
      "beta" : 0
    },
    {
      "bottom" : "model\/142\/add,model\/143\/Relu",
      "alpha" : 1,
      "operation" : 0,
      "weights" : {

      },
      "fused_relu" : 0,
      "debug_info" : "model\/144\/add",
      "nd_mode" : true,
      "top" : "model\/144\/add",
      "type" : "elementwise",
      "name" : "model\/144\/add",
      "beta" : 0
    },
    {
      "bottom" : "model\/144\/add",
      "weights" : {

      },
      "mode" : 0,
      "debug_info" : "model\/145\/Relu",
      "top" : "model\/145\/Relu",
      "type" : "activation",
      "name" : "model\/145\/Relu"
    },
    {
      "pad_r" : 1,
      "fused_relu" : 1,
      "fused_tanh" : 0,
      "debug_info" : "model\/147\/BiasAdd",
      "pad_fill_mode" : 0,
      "pad_b" : 1,
      "pad_l" : 1,
      "top" : "model\/148\/Relu",
      "blob_weights" : 75,
      "K" : 32,
      "blob_biases" : 73,
      "stride_x" : 2,
      "name" : "model\/147\/BiasAdd",
      "has_batch_norm" : 0,
      "type" : "convolution",
      "n_groups" : 1,
      "pad_t" : 1,
      "stride_y" : 2,
      "has_biases" : 1,
      "C" : 64,
      "bottom" : "model\/145\/Relu",
      "weights" : {

      },
      "Nx" : 3,
      "pad_mode" : 0,
      "pad_value" : 0,
      "Ny" : 3,
      "n_parallel" : 1
    },
    {
      "pad_r" : 0,
      "fused_relu" : 0,
      "fused_tanh" : 0,
      "debug_info" : "model\/150\/BiasAdd",
      "pad_fill_mode" : 0,
      "pad_b" : 0,
      "pad_l" : 0,
      "top" : "model\/150\/BiasAdd",
      "blob_weights" : 79,
      "K" : 64,
      "blob_biases" : 77,
      "name" : "model\/150\/BiasAdd",
      "has_batch_norm" : 0,
      "type" : "convolution",
      "n_groups" : 1,
      "pad_t" : 0,
      "has_biases" : 1,
      "C" : 64,
      "bottom" : "model\/148\/Relu",
      "weights" : {

      },
      "Nx" : 1,
      "pad_mode" : 0,
      "pad_value" : 0,
      "Ny" : 1,
      "n_parallel" : 1
    },
    {
      "pad_r" : 1,
      "fused_relu" : 1,
      "fused_tanh" : 0,
      "debug_info" : "model\/151\/BiasAdd",
      "pad_fill_mode" : 0,
      "pad_b" : 1,
      "pad_l" : 1,
      "top" : "model\/152\/Relu",
      "blob_weights" : 83,
      "K" : 64,
      "blob_biases" : 81,
      "name" : "model\/151\/BiasAdd",
      "has_batch_norm" : 0,
      "type" : "convolution",
      "n_groups" : 64,
      "pad_t" : 1,
      "has_biases" : 1,
      "C" : 64,
      "bottom" : "model\/148\/Relu",
      "weights" : {

      },
      "Nx" : 3,
      "pad_mode" : 0,
      "pad_value" : 0,
      "Ny" : 3,
      "n_parallel" : 1
    },
    {
      "pad_r" : 0,
      "fused_relu" : 0,
      "fused_tanh" : 0,
      "debug_info" : "model\/153\/BiasAdd",
      "pad_fill_mode" : 0,
      "pad_b" : 0,
      "pad_l" : 0,
      "top" : "model\/153\/BiasAdd",
      "blob_weights" : 87,
      "K" : 64,
      "blob_biases" : 85,
      "name" : "model\/153\/BiasAdd",
      "has_batch_norm" : 0,
      "type" : "convolution",
      "n_groups" : 1,
      "pad_t" : 0,
      "has_biases" : 1,
      "C" : 64,
      "bottom" : "model\/152\/Relu",
      "weights" : {

      },
      "Nx" : 1,
      "pad_mode" : 0,
      "pad_value" : 0,
      "Ny" : 1,
      "n_parallel" : 1
    },
    {
      "bottom" : "model\/153\/BiasAdd",
      "weights" : {

      },
      "mode" : 0,
      "debug_info" : "model\/154\/Relu",
      "top" : "model\/154\/Relu",
      "type" : "activation",
      "name" : "model\/154\/Relu"
    },
    {
      "bottom" : "model\/153\/BiasAdd",
      "weights" : {

      },
      "mode" : 0,
      "debug_info" : "model\/184\/Relu",
      "top" : "model\/184\/Relu",
      "type" : "activation",
      "name" : "model\/184\/Relu"
    },
    {
      "pad_r" : 2,
      "fused_relu" : 1,
      "fused_tanh" : 0,
      "debug_info" : "model\/156\/BiasAdd",
      "pad_fill_mode" : 0,
      "pad_b" : 2,
      "pad_l" : 2,
      "top" : "model\/157\/Relu",
      "blob_weights" : 91,
      "K" : 64,
      "blob_biases" : 89,
      "name" : "model\/156\/BiasAdd",
      "has_batch_norm" : 0,
      "type" : "convolution",
      "n_groups" : 64,
      "pad_t" : 2,
      "has_biases" : 1,
      "C" : 64,
      "bottom" : "model\/154\/Relu",
      "weights" : {

      },
      "Nx" : 5,
      "pad_mode" : 0,
      "pad_value" : 0,
      "Ny" : 5,
      "n_parallel" : 1
    },
    {
      "pad_r" : 0,
      "fused_relu" : 0,
      "fused_tanh" : 0,
      "debug_info" : "model\/158\/BiasAdd",
      "pad_fill_mode" : 0,
      "pad_b" : 0,
      "pad_l" : 0,
      "top" : "model\/158\/BiasAdd",
      "blob_weights" : 95,
      "K" : 64,
      "blob_biases" : 93,
      "name" : "model\/158\/BiasAdd",
      "has_batch_norm" : 0,
      "type" : "convolution",
      "n_groups" : 1,
      "pad_t" : 0,
      "has_biases" : 1,
      "C" : 64,
      "bottom" : "model\/157\/Relu",
      "weights" : {

      },
      "Nx" : 1,
      "pad_mode" : 0,
      "pad_value" : 0,
      "Ny" : 1,
      "n_parallel" : 1
    },
    {
      "bottom" : "model\/150\/BiasAdd,model\/158\/BiasAdd",
      "alpha" : 1,
      "operation" : 0,
      "weights" : {

      },
      "fused_relu" : 0,
      "debug_info" : "model\/159\/add",
      "top" : "model\/159\/add",
      "type" : "elementwise",
      "name" : "model\/159\/add",
      "beta" : 0
    },
    {
      "bottom" : "model\/159\/add",
      "weights" : {

      },
      "mode" : 0,
      "debug_info" : "model\/160\/Relu",
      "top" : "model\/160\/Relu",
      "type" : "activation",
      "name" : "model\/160\/Relu"
    },
    {
      "pad_r" : 0,
      "fused_relu" : 0,
      "fused_tanh" : 0,
      "debug_info" : "model\/162\/BiasAdd",
      "pad_fill_mode" : 0,
      "pad_b" : 0,
      "pad_l" : 0,
      "top" : "model\/162\/BiasAdd",
      "blob_weights" : 99,
      "K" : 64,
      "blob_biases" : 97,
      "name" : "model\/162\/BiasAdd",
      "has_batch_norm" : 0,
      "type" : "convolution",
      "n_groups" : 1,
      "pad_t" : 0,
      "has_biases" : 1,
      "C" : 64,
      "bottom" : "model\/160\/Relu",
      "weights" : {

      },
      "Nx" : 1,
      "pad_mode" : 0,
      "pad_value" : 0,
      "Ny" : 1,
      "n_parallel" : 1
    },
    {
      "pad_r" : 1,
      "fused_relu" : 1,
      "fused_tanh" : 0,
      "debug_info" : "model\/163\/BiasAdd",
      "pad_fill_mode" : 0,
      "pad_b" : 1,
      "pad_l" : 1,
      "top" : "model\/164\/Relu",
      "blob_weights" : 103,
      "K" : 64,
      "blob_biases" : 101,
      "name" : "model\/163\/BiasAdd",
      "has_batch_norm" : 0,
      "type" : "convolution",
      "n_groups" : 64,
      "pad_t" : 1,
      "has_biases" : 1,
      "C" : 64,
      "bottom" : "model\/160\/Relu",
      "weights" : {

      },
      "Nx" : 3,
      "pad_mode" : 0,
      "pad_value" : 0,
      "Ny" : 3,
      "n_parallel" : 1
    },
    {
      "pad_r" : 0,
      "fused_relu" : 1,
      "fused_tanh" : 0,
      "debug_info" : "model\/165\/BiasAdd",
      "pad_fill_mode" : 0,
      "pad_b" : 0,
      "pad_l" : 0,
      "top" : "model\/166\/Relu",
      "blob_weights" : 107,
      "K" : 64,
      "blob_biases" : 105,
      "name" : "model\/165\/BiasAdd",
      "has_batch_norm" : 0,
      "type" : "convolution",
      "n_groups" : 1,
      "pad_t" : 0,
      "has_biases" : 1,
      "C" : 64,
      "bottom" : "model\/164\/Relu",
      "weights" : {

      },
      "Nx" : 1,
      "pad_mode" : 0,
      "pad_value" : 0,
      "Ny" : 1,
      "n_parallel" : 1
    },
    {
      "pad_r" : 2,
      "fused_relu" : 1,
      "fused_tanh" : 0,
      "debug_info" : "model\/168\/BiasAdd",
      "pad_fill_mode" : 0,
      "pad_b" : 2,
      "pad_l" : 2,
      "top" : "model\/169\/Relu",
      "blob_weights" : 111,
      "K" : 64,
      "blob_biases" : 109,
      "name" : "model\/168\/BiasAdd",
      "has_batch_norm" : 0,
      "type" : "convolution",
      "n_groups" : 64,
      "pad_t" : 2,
      "has_biases" : 1,
      "C" : 64,
      "bottom" : "model\/166\/Relu",
      "weights" : {

      },
      "Nx" : 5,
      "pad_mode" : 0,
      "pad_value" : 0,
      "Ny" : 5,
      "n_parallel" : 1
    },
    {
      "pad_r" : 0,
      "fused_relu" : 0,
      "fused_tanh" : 0,
      "debug_info" : "model\/170\/BiasAdd",
      "pad_fill_mode" : 0,
      "pad_b" : 0,
      "pad_l" : 0,
      "top" : "model\/170\/BiasAdd",
      "blob_weights" : 115,
      "K" : 64,
      "blob_biases" : 113,
      "name" : "model\/170\/BiasAdd",
      "has_batch_norm" : 0,
      "type" : "convolution",
      "n_groups" : 1,
      "pad_t" : 0,
      "has_biases" : 1,
      "C" : 64,
      "bottom" : "model\/169\/Relu",
      "weights" : {

      },
      "Nx" : 1,
      "pad_mode" : 0,
      "pad_value" : 0,
      "Ny" : 1,
      "n_parallel" : 1
    },
    {
      "bottom" : "model\/162\/BiasAdd,model\/170\/BiasAdd",
      "alpha" : 1,
      "operation" : 0,
      "weights" : {

      },
      "fused_relu" : 0,
      "debug_info" : "model\/171\/add",
      "top" : "model\/171\/add",
      "type" : "elementwise",
      "name" : "model\/171\/add",
      "beta" : 0
    },
    {
      "bottom" : "model\/171\/add",
      "weights" : {

      },
      "mode" : 0,
      "debug_info" : "model\/172\/Relu",
      "top" : "model\/172\/Relu",
      "type" : "activation",
      "name" : "model\/172\/Relu"
    },
    {
      "pad_r" : 0,
      "fused_relu" : 0,
      "fused_tanh" : 0,
      "debug_info" : "model\/174\/BiasAdd",
      "pad_fill_mode" : 0,
      "pad_b" : 0,
      "pad_l" : 0,
      "top" : "model\/174\/BiasAdd",
      "blob_weights" : 119,
      "K" : 64,
      "blob_biases" : 117,
      "name" : "model\/174\/BiasAdd",
      "has_batch_norm" : 0,
      "type" : "convolution",
      "n_groups" : 1,
      "pad_t" : 0,
      "has_biases" : 1,
      "C" : 64,
      "bottom" : "model\/172\/Relu",
      "weights" : {

      },
      "Nx" : 1,
      "pad_mode" : 0,
      "pad_value" : 0,
      "Ny" : 1,
      "n_parallel" : 1
    },
    {
      "pad_r" : 1,
      "fused_relu" : 1,
      "fused_tanh" : 0,
      "debug_info" : "model\/175\/BiasAdd",
      "pad_fill_mode" : 0,
      "pad_b" : 1,
      "pad_l" : 1,
      "top" : "model\/176\/Relu",
      "blob_weights" : 123,
      "K" : 64,
      "blob_biases" : 121,
      "name" : "model\/175\/BiasAdd",
      "has_batch_norm" : 0,
      "type" : "convolution",
      "n_groups" : 64,
      "pad_t" : 1,
      "has_biases" : 1,
      "C" : 64,
      "bottom" : "model\/172\/Relu",
      "weights" : {

      },
      "Nx" : 3,
      "pad_mode" : 0,
      "pad_value" : 0,
      "Ny" : 3,
      "n_parallel" : 1
    },
    {
      "pad_r" : 0,
      "fused_relu" : 1,
      "fused_tanh" : 0,
      "debug_info" : "model\/177\/BiasAdd",
      "pad_fill_mode" : 0,
      "pad_b" : 0,
      "pad_l" : 0,
      "top" : "model\/178\/Relu",
      "blob_weights" : 127,
      "K" : 64,
      "blob_biases" : 125,
      "name" : "model\/177\/BiasAdd",
      "has_batch_norm" : 0,
      "type" : "convolution",
      "n_groups" : 1,
      "pad_t" : 0,
      "has_biases" : 1,
      "C" : 64,
      "bottom" : "model\/176\/Relu",
      "weights" : {

      },
      "Nx" : 1,
      "pad_mode" : 0,
      "pad_value" : 0,
      "Ny" : 1,
      "n_parallel" : 1
    },
    {
      "pad_r" : 2,
      "fused_relu" : 1,
      "fused_tanh" : 0,
      "debug_info" : "model\/180\/BiasAdd",
      "pad_fill_mode" : 0,
      "pad_b" : 2,
      "pad_l" : 2,
      "top" : "model\/181\/Relu",
      "blob_weights" : 131,
      "K" : 64,
      "blob_biases" : 129,
      "name" : "model\/180\/BiasAdd",
      "has_batch_norm" : 0,
      "type" : "convolution",
      "n_groups" : 64,
      "pad_t" : 2,
      "has_biases" : 1,
      "C" : 64,
      "bottom" : "model\/178\/Relu",
      "weights" : {

      },
      "Nx" : 5,
      "pad_mode" : 0,
      "pad_value" : 0,
      "Ny" : 5,
      "n_parallel" : 1
    },
    {
      "pad_r" : 0,
      "fused_relu" : 0,
      "fused_tanh" : 0,
      "debug_info" : "model\/182\/BiasAdd",
      "pad_fill_mode" : 0,
      "pad_b" : 0,
      "pad_l" : 0,
      "top" : "model\/182\/BiasAdd",
      "blob_weights" : 135,
      "K" : 64,
      "blob_biases" : 133,
      "name" : "model\/182\/BiasAdd",
      "has_batch_norm" : 0,
      "type" : "convolution",
      "n_groups" : 1,
      "pad_t" : 0,
      "has_biases" : 1,
      "C" : 64,
      "bottom" : "model\/181\/Relu",
      "weights" : {

      },
      "Nx" : 1,
      "pad_mode" : 0,
      "pad_value" : 0,
      "Ny" : 1,
      "n_parallel" : 1
    },
    {
      "bottom" : "model\/174\/BiasAdd,model\/182\/BiasAdd",
      "alpha" : 1,
      "operation" : 0,
      "weights" : {

      },
      "fused_relu" : 0,
      "debug_info" : "model\/183\/add",
      "top" : "model\/183\/add",
      "type" : "elementwise",
      "name" : "model\/183\/add",
      "beta" : 0
    },
    {
      "bottom" : "model\/183\/add,model\/184\/Relu",
      "alpha" : 1,
      "operation" : 0,
      "weights" : {

      },
      "fused_relu" : 0,
      "debug_info" : "model\/185\/add",
      "nd_mode" : true,
      "top" : "model\/185\/add",
      "type" : "elementwise",
      "name" : "model\/185\/add",
      "beta" : 0
    },
    {
      "bottom" : "model\/185\/add",
      "weights" : {

      },
      "mode" : 0,
      "debug_info" : "model\/186\/Relu",
      "top" : "model\/186\/Relu",
      "type" : "activation",
      "name" : "model\/186\/Relu"
    },
    {
      "pad_r" : 0,
      "fused_relu" : 0,
      "fused_tanh" : 0,
      "debug_info" : "model\/188\/BiasAdd",
      "pad_fill_mode" : 0,
      "pad_b" : 0,
      "pad_l" : 0,
      "top" : "model\/188\/BiasAdd",
      "blob_weights" : 139,
      "K" : 64,
      "blob_biases" : 137,
      "name" : "model\/188\/BiasAdd",
      "has_batch_norm" : 0,
      "type" : "convolution",
      "n_groups" : 1,
      "pad_t" : 0,
      "has_biases" : 1,
      "C" : 64,
      "bottom" : "model\/186\/Relu",
      "weights" : {

      },
      "Nx" : 1,
      "pad_mode" : 0,
      "pad_value" : 0,
      "Ny" : 1,
      "n_parallel" : 1
    },
    {
      "pad_r" : 1,
      "fused_relu" : 1,
      "fused_tanh" : 0,
      "debug_info" : "model\/189\/BiasAdd",
      "pad_fill_mode" : 0,
      "pad_b" : 1,
      "pad_l" : 1,
      "top" : "model\/190\/Relu",
      "blob_weights" : 143,
      "K" : 64,
      "blob_biases" : 141,
      "name" : "model\/189\/BiasAdd",
      "has_batch_norm" : 0,
      "type" : "convolution",
      "n_groups" : 64,
      "pad_t" : 1,
      "has_biases" : 1,
      "C" : 64,
      "bottom" : "model\/186\/Relu",
      "weights" : {

      },
      "Nx" : 3,
      "pad_mode" : 0,
      "pad_value" : 0,
      "Ny" : 3,
      "n_parallel" : 1
    },
    {
      "pad_r" : 0,
      "fused_relu" : 0,
      "fused_tanh" : 0,
      "debug_info" : "model\/191\/BiasAdd",
      "pad_fill_mode" : 0,
      "pad_b" : 0,
      "pad_l" : 0,
      "top" : "model\/191\/BiasAdd",
      "blob_weights" : 147,
      "K" : 64,
      "blob_biases" : 145,
      "name" : "model\/191\/BiasAdd",
      "has_batch_norm" : 0,
      "type" : "convolution",
      "n_groups" : 1,
      "pad_t" : 0,
      "has_biases" : 1,
      "C" : 64,
      "bottom" : "model\/190\/Relu",
      "weights" : {

      },
      "Nx" : 1,
      "pad_mode" : 0,
      "pad_value" : 0,
      "Ny" : 1,
      "n_parallel" : 1
    },
    {
      "bottom" : "model\/191\/BiasAdd",
      "weights" : {

      },
      "mode" : 0,
      "debug_info" : "model\/192\/Relu",
      "top" : "model\/192\/Relu",
      "type" : "activation",
      "name" : "model\/192\/Relu"
    },
    {
      "bottom" : "model\/191\/BiasAdd",
      "weights" : {

      },
      "mode" : 0,
      "debug_info" : "model\/222\/Relu",
      "top" : "model\/222\/Relu",
      "type" : "activation",
      "name" : "model\/222\/Relu"
    },
    {
      "pad_r" : 2,
      "fused_relu" : 1,
      "fused_tanh" : 0,
      "debug_info" : "model\/194\/BiasAdd",
      "pad_fill_mode" : 0,
      "pad_b" : 2,
      "pad_l" : 2,
      "top" : "model\/195\/Relu",
      "blob_weights" : 151,
      "K" : 64,
      "blob_biases" : 149,
      "name" : "model\/194\/BiasAdd",
      "has_batch_norm" : 0,
      "type" : "convolution",
      "n_groups" : 64,
      "pad_t" : 2,
      "has_biases" : 1,
      "C" : 64,
      "bottom" : "model\/192\/Relu",
      "weights" : {

      },
      "Nx" : 5,
      "pad_mode" : 0,
      "pad_value" : 0,
      "Ny" : 5,
      "n_parallel" : 1
    },
    {
      "pad_r" : 0,
      "fused_relu" : 0,
      "fused_tanh" : 0,
      "debug_info" : "model\/196\/BiasAdd",
      "pad_fill_mode" : 0,
      "pad_b" : 0,
      "pad_l" : 0,
      "top" : "model\/196\/BiasAdd",
      "blob_weights" : 155,
      "K" : 64,
      "blob_biases" : 153,
      "name" : "model\/196\/BiasAdd",
      "has_batch_norm" : 0,
      "type" : "convolution",
      "n_groups" : 1,
      "pad_t" : 0,
      "has_biases" : 1,
      "C" : 64,
      "bottom" : "model\/195\/Relu",
      "weights" : {

      },
      "Nx" : 1,
      "pad_mode" : 0,
      "pad_value" : 0,
      "Ny" : 1,
      "n_parallel" : 1
    },
    {
      "bottom" : "model\/188\/BiasAdd,model\/196\/BiasAdd",
      "alpha" : 1,
      "operation" : 0,
      "weights" : {

      },
      "fused_relu" : 0,
      "debug_info" : "model\/197\/add",
      "top" : "model\/197\/add",
      "type" : "elementwise",
      "name" : "model\/197\/add",
      "beta" : 0
    },
    {
      "bottom" : "model\/197\/add",
      "weights" : {

      },
      "mode" : 0,
      "debug_info" : "model\/198\/Relu",
      "top" : "model\/198\/Relu",
      "type" : "activation",
      "name" : "model\/198\/Relu"
    },
    {
      "pad_r" : 0,
      "fused_relu" : 0,
      "fused_tanh" : 0,
      "debug_info" : "model\/200\/BiasAdd",
      "pad_fill_mode" : 0,
      "pad_b" : 0,
      "pad_l" : 0,
      "top" : "model\/200\/BiasAdd",
      "blob_weights" : 159,
      "K" : 64,
      "blob_biases" : 157,
      "name" : "model\/200\/BiasAdd",
      "has_batch_norm" : 0,
      "type" : "convolution",
      "n_groups" : 1,
      "pad_t" : 0,
      "has_biases" : 1,
      "C" : 64,
      "bottom" : "model\/198\/Relu",
      "weights" : {

      },
      "Nx" : 1,
      "pad_mode" : 0,
      "pad_value" : 0,
      "Ny" : 1,
      "n_parallel" : 1
    },
    {
      "pad_r" : 1,
      "fused_relu" : 1,
      "fused_tanh" : 0,
      "debug_info" : "model\/201\/BiasAdd",
      "pad_fill_mode" : 0,
      "pad_b" : 1,
      "pad_l" : 1,
      "top" : "model\/202\/Relu",
      "blob_weights" : 163,
      "K" : 64,
      "blob_biases" : 161,
      "name" : "model\/201\/BiasAdd",
      "has_batch_norm" : 0,
      "type" : "convolution",
      "n_groups" : 64,
      "pad_t" : 1,
      "has_biases" : 1,
      "C" : 64,
      "bottom" : "model\/198\/Relu",
      "weights" : {

      },
      "Nx" : 3,
      "pad_mode" : 0,
      "pad_value" : 0,
      "Ny" : 3,
      "n_parallel" : 1
    },
    {
      "pad_r" : 0,
      "fused_relu" : 1,
      "fused_tanh" : 0,
      "debug_info" : "model\/203\/BiasAdd",
      "pad_fill_mode" : 0,
      "pad_b" : 0,
      "pad_l" : 0,
      "top" : "model\/204\/Relu",
      "blob_weights" : 167,
      "K" : 64,
      "blob_biases" : 165,
      "name" : "model\/203\/BiasAdd",
      "has_batch_norm" : 0,
      "type" : "convolution",
      "n_groups" : 1,
      "pad_t" : 0,
      "has_biases" : 1,
      "C" : 64,
      "bottom" : "model\/202\/Relu",
      "weights" : {

      },
      "Nx" : 1,
      "pad_mode" : 0,
      "pad_value" : 0,
      "Ny" : 1,
      "n_parallel" : 1
    },
    {
      "pad_r" : 2,
      "fused_relu" : 1,
      "fused_tanh" : 0,
      "debug_info" : "model\/206\/BiasAdd",
      "pad_fill_mode" : 0,
      "pad_b" : 2,
      "pad_l" : 2,
      "top" : "model\/207\/Relu",
      "blob_weights" : 171,
      "K" : 64,
      "blob_biases" : 169,
      "name" : "model\/206\/BiasAdd",
      "has_batch_norm" : 0,
      "type" : "convolution",
      "n_groups" : 64,
      "pad_t" : 2,
      "has_biases" : 1,
      "C" : 64,
      "bottom" : "model\/204\/Relu",
      "weights" : {

      },
      "Nx" : 5,
      "pad_mode" : 0,
      "pad_value" : 0,
      "Ny" : 5,
      "n_parallel" : 1
    },
    {
      "pad_r" : 0,
      "fused_relu" : 0,
      "fused_tanh" : 0,
      "debug_info" : "model\/208\/BiasAdd",
      "pad_fill_mode" : 0,
      "pad_b" : 0,
      "pad_l" : 0,
      "top" : "model\/208\/BiasAdd",
      "blob_weights" : 175,
      "K" : 64,
      "blob_biases" : 173,
      "name" : "model\/208\/BiasAdd",
      "has_batch_norm" : 0,
      "type" : "convolution",
      "n_groups" : 1,
      "pad_t" : 0,
      "has_biases" : 1,
      "C" : 64,
      "bottom" : "model\/207\/Relu",
      "weights" : {

      },
      "Nx" : 1,
      "pad_mode" : 0,
      "pad_value" : 0,
      "Ny" : 1,
      "n_parallel" : 1
    },
    {
      "bottom" : "model\/200\/BiasAdd,model\/208\/BiasAdd",
      "alpha" : 1,
      "operation" : 0,
      "weights" : {

      },
      "fused_relu" : 0,
      "debug_info" : "model\/209\/add",
      "top" : "model\/209\/add",
      "type" : "elementwise",
      "name" : "model\/209\/add",
      "beta" : 0
    },
    {
      "bottom" : "model\/209\/add",
      "weights" : {

      },
      "mode" : 0,
      "debug_info" : "model\/210\/Relu",
      "top" : "model\/210\/Relu",
      "type" : "activation",
      "name" : "model\/210\/Relu"
    },
    {
      "pad_r" : 0,
      "fused_relu" : 0,
      "fused_tanh" : 0,
      "debug_info" : "model\/212\/BiasAdd",
      "pad_fill_mode" : 0,
      "pad_b" : 0,
      "pad_l" : 0,
      "top" : "model\/212\/BiasAdd",
      "blob_weights" : 179,
      "K" : 64,
      "blob_biases" : 177,
      "name" : "model\/212\/BiasAdd",
      "has_batch_norm" : 0,
      "type" : "convolution",
      "n_groups" : 1,
      "pad_t" : 0,
      "has_biases" : 1,
      "C" : 64,
      "bottom" : "model\/210\/Relu",
      "weights" : {

      },
      "Nx" : 1,
      "pad_mode" : 0,
      "pad_value" : 0,
      "Ny" : 1,
      "n_parallel" : 1
    },
    {
      "pad_r" : 1,
      "fused_relu" : 1,
      "fused_tanh" : 0,
      "debug_info" : "model\/213\/BiasAdd",
      "pad_fill_mode" : 0,
      "pad_b" : 1,
      "pad_l" : 1,
      "top" : "model\/214\/Relu",
      "blob_weights" : 183,
      "K" : 64,
      "blob_biases" : 181,
      "name" : "model\/213\/BiasAdd",
      "has_batch_norm" : 0,
      "type" : "convolution",
      "n_groups" : 64,
      "pad_t" : 1,
      "has_biases" : 1,
      "C" : 64,
      "bottom" : "model\/210\/Relu",
      "weights" : {

      },
      "Nx" : 3,
      "pad_mode" : 0,
      "pad_value" : 0,
      "Ny" : 3,
      "n_parallel" : 1
    },
    {
      "pad_r" : 0,
      "fused_relu" : 1,
      "fused_tanh" : 0,
      "debug_info" : "model\/215\/BiasAdd",
      "pad_fill_mode" : 0,
      "pad_b" : 0,
      "pad_l" : 0,
      "top" : "model\/216\/Relu",
      "blob_weights" : 187,
      "K" : 64,
      "blob_biases" : 185,
      "name" : "model\/215\/BiasAdd",
      "has_batch_norm" : 0,
      "type" : "convolution",
      "n_groups" : 1,
      "pad_t" : 0,
      "has_biases" : 1,
      "C" : 64,
      "bottom" : "model\/214\/Relu",
      "weights" : {

      },
      "Nx" : 1,
      "pad_mode" : 0,
      "pad_value" : 0,
      "Ny" : 1,
      "n_parallel" : 1
    },
    {
      "pad_r" : 2,
      "fused_relu" : 1,
      "fused_tanh" : 0,
      "debug_info" : "model\/218\/BiasAdd",
      "pad_fill_mode" : 0,
      "pad_b" : 2,
      "pad_l" : 2,
      "top" : "model\/219\/Relu",
      "blob_weights" : 191,
      "K" : 64,
      "blob_biases" : 189,
      "name" : "model\/218\/BiasAdd",
      "has_batch_norm" : 0,
      "type" : "convolution",
      "n_groups" : 64,
      "pad_t" : 2,
      "has_biases" : 1,
      "C" : 64,
      "bottom" : "model\/216\/Relu",
      "weights" : {

      },
      "Nx" : 5,
      "pad_mode" : 0,
      "pad_value" : 0,
      "Ny" : 5,
      "n_parallel" : 1
    },
    {
      "pad_r" : 0,
      "fused_relu" : 0,
      "fused_tanh" : 0,
      "debug_info" : "model\/220\/BiasAdd",
      "pad_fill_mode" : 0,
      "pad_b" : 0,
      "pad_l" : 0,
      "top" : "model\/220\/BiasAdd",
      "blob_weights" : 195,
      "K" : 64,
      "blob_biases" : 193,
      "name" : "model\/220\/BiasAdd",
      "has_batch_norm" : 0,
      "type" : "convolution",
      "n_groups" : 1,
      "pad_t" : 0,
      "has_biases" : 1,
      "C" : 64,
      "bottom" : "model\/219\/Relu",
      "weights" : {

      },
      "Nx" : 1,
      "pad_mode" : 0,
      "pad_value" : 0,
      "Ny" : 1,
      "n_parallel" : 1
    },
    {
      "bottom" : "model\/212\/BiasAdd,model\/220\/BiasAdd",
      "alpha" : 1,
      "operation" : 0,
      "weights" : {

      },
      "fused_relu" : 0,
      "debug_info" : "model\/221\/add",
      "top" : "model\/221\/add",
      "type" : "elementwise",
      "name" : "model\/221\/add",
      "beta" : 0
    },
    {
      "bottom" : "model\/221\/add,model\/222\/Relu",
      "alpha" : 1,
      "operation" : 0,
      "weights" : {

      },
      "fused_relu" : 0,
      "debug_info" : "model\/223\/add",
      "nd_mode" : true,
      "top" : "model\/223\/add",
      "type" : "elementwise",
      "name" : "model\/223\/add",
      "beta" : 0
    },
    {
      "bottom" : "model\/223\/add",
      "weights" : {

      },
      "mode" : 0,
      "debug_info" : "model\/224\/Relu",
      "top" : "model\/224\/Relu",
      "type" : "activation",
      "name" : "model\/224\/Relu"
    },
    {
      "pad_r" : 0,
      "fused_relu" : 0,
      "fused_tanh" : 0,
      "debug_info" : "model\/225\/BiasAdd",
      "pad_fill_mode" : 0,
      "pad_b" : 0,
      "pad_l" : 0,
      "top" : "model\/225\/BiasAdd",
      "blob_weights" : 199,
      "K" : 64,
      "blob_biases" : 197,
      "name" : "model\/225\/BiasAdd",
      "has_batch_norm" : 0,
      "type" : "convolution",
      "n_groups" : 1,
      "pad_t" : 0,
      "has_biases" : 1,
      "C" : 1,
      "bottom" : "model\/224\/Relu",
      "weights" : {

      },
      "Nx" : 1,
      "pad_mode" : 0,
      "pad_value" : 0,
      "Ny" : 1,
      "n_parallel" : 1
    },
    {
      "pad_r" : 0,
      "fused_relu" : 0,
      "fused_tanh" : 0,
      "debug_info" : "model\/227\/conv2d_transposex",
      "pad_fill_mode" : 0,
      "pad_b" : 0,
      "pad_l" : 0,
      "top" : "model\/227\/conv2d_transposex",
      "blob_weights" : 201,
      "K" : 1,
      "stride_x" : 8,
      "name" : "model\/227\/conv2d_transposex",
      "deconv_out_height" : 264,
      "has_batch_norm" : 0,
      "type" : "deconvolution",
      "n_groups" : 1,
      "pad_t" : 0,
      "stride_y" : 8,
      "has_biases" : 0,
      "C" : 1,
      "bottom" : "model\/225\/BiasAdd",
      "weights" : {

      },
      "Nx" : 16,
      "pad_mode" : 0,
      "deconv_out_width" : 264,
      "pad_value" : 0,
      "Ny" : 16,
      "n_parallel" : 1
    },
    {
      "axis_h" : 0,
      "axis_w" : 2,
      "bottom" : "model\/227\/conv2d_transposex",
      "axis_k" : 1,
      "axis_n" : 3,
      "axis_seq" : 4,
      "weights" : {

      },
      "debug_info" : "model\/227\/conv2d_transpose",
      "top" : "model\/227\/conv2d_transpose",
      "type" : "transpose",
      "name" : "model\/227\/conv2d_transpose"
    },
    {
      "begin_n" : 0,
      "end_mask_h" : false,
      "end_w" : 0,
      "end_h" : 260,
      "begin_h" : 4,
      "stride_n" : 1,
      "end_seq" : 1,
      "begin_mask_seq" : false,
      "begin_mask_h" : false,
      "squeeze_mask_h" : false,
      "stride_k" : 1,
      "type" : "general_slice",
      "begin_mask_k" : false,
      "begin_w" : 0,
      "end_mask_k" : false,
      "weights" : {

      },
      "stride_h" : 1,
      "begin_mask_n" : true,
      "name" : "model\/227_crop\/strided_slice",
      "stride_seq" : 1,
      "end_k" : 260,
      "top" : "model\/227_crop\/strided_slice",
      "begin_seq" : 0,
      "squeeze_mask_k" : false,
      "begin_k" : 4,
      "end_mask_w" : true,
      "end_mask_seq" : false,
      "end_mask_n" : true,
      "debug_info" : "model\/227_crop\/strided_slice",
      "stride_w" : 1,
      "squeeze_mask_seq" : false,
      "begin_mask_w" : true,
      "bottom" : "model\/227\/conv2d_transpose",
      "end_n" : 0,
      "squeeze_mask_w" : false,
      "squeeze_mask_n" : false
    },
    {
      "bottom" : "model\/227_crop\/strided_slice",
      "weights" : {

      },
      "mode" : 3,
      "debug_info" : "model\/output\/Sigmoid",
      "top" : "Identity",
      "type" : "activation",
      "name" : "model\/output\/Sigmoid",
      "attributes" : {
        "is_output" : 1
      }
    }
  ]
}